…
**** do_profile = *False*
**** record_shapes = *False*
**** do_predict = *False*
**** do_score = *False*
**** checkpoint_step_start = *None*
**** checkpoint_step_end = *None*
**** predict_batch_size = *4096*
**** test_bin = **
**** result_file = **
**** beam_size = *5*
**** n_best = *10*
**** temperature = *1.0*
**** predict_min_len = *1*
**** predict_max_len = *512*
Loading vocab from ./my_preprocessed/USPTO_480k_g2s_series_rel_smiles_smiles/vocab_smiles.txt
Gsimclr(
  (encoder): GraphFeatEncoder(
    (mpn): DGATEncoder(
      (leaky_relu): LeakyReLU(negative_slope=0.01)
      (W_o): Sequential(
        (0): Linear(in_features=361, out_features=256, bias=True)
        (1): GELU()
      )
      (rnn): DGATGRU(
        (W_z): Linear(in_features=370, out_features=256, bias=True)
        (W_r): Linear(in_features=114, out_features=256, bias=False)
        (U_r): Linear(in_features=256, out_features=256, bias=True)
        (W_h): Linear(in_features=370, out_features=256, bias=True)
        (leaky_relu): LeakyReLU(negative_slope=0.01)
        (attn_W_q): Linear(in_features=114, out_features=256, bias=True)
        (attn_W_k): Linear(in_features=256, out_features=256, bias=True)
        (attn_W_v): Linear(in_features=256, out_features=256, bias=True)
        (softmax): Softmax(dim=1)
        (dropout): Dropout(p=0.3, inplace=False)
        (attn_dropout): Dropout(p=0.3, inplace=False)
      )
      (attn_W_q): Linear(in_features=105, out_features=256, bias=True)
      (attn_W_k): Linear(in_features=256, out_features=256, bias=True)
      (attn_W_v): Linear(in_features=256, out_features=256, bias=True)
      (softmax): Softmax(dim=1)
      (dropout): Dropout(p=0.3, inplace=False)
      (attn_dropout): Dropout(p=0.3, inplace=False)
    )
  )
  (attention_encoder): AttnEncoderXL(
    (dropout): Dropout(p=0.3, inplace=False)
    (attention_layers): ModuleList(
      (0): SALayerXL(
        (self_attn): MultiHeadedRelAttention(
          (linear_keys): Linear(in_features=256, out_features=256, bias=True)
          (linear_values): Linear(in_features=256, out_features=256, bias=True)
          (linear_query): Linear(in_features=256, out_features=256, bias=True)
          (softmax): Softmax(dim=-1)
          (dropout): Dropout(p=0.3, inplace=False)
          (final_linear): Linear(in_features=256, out_features=256, bias=True)
          (relative_pe): Embedding(12, 256, padding_idx=11)
        )
        (feed_forward): PositionwiseFeedForward(
          (w_1): Linear(in_features=256, out_features=2048, bias=True)
          (w_2): Linear(in_features=2048, out_features=256, bias=True)
          (layer_norm): LayerNorm((256,), eps=1e-06, elementwise_affine=True)
          (dropout_1): Dropout(p=0.3, inplace=False)
          (relu): ReLU()
          (dropout_2): Dropout(p=0.3, inplace=False)
        )
        (layer_norm): LayerNorm((256,), eps=1e-06, elementwise_affine=True)
        (dropout): Dropout(p=0.3, inplace=False)
      )
      (1): SALayerXL(
        (self_attn): MultiHeadedRelAttention(
          (linear_keys): Linear(in_features=256, out_features=256, bias=True)
          (linear_values): Linear(in_features=256, out_features=256, bias=True)
          (linear_query): Linear(in_features=256, out_features=256, bias=True)
          (softmax): Softmax(dim=-1)
          (dropout): Dropout(p=0.3, inplace=False)
          (final_linear): Linear(in_features=256, out_features=256, bias=True)
          (relative_pe): Embedding(12, 256, padding_idx=11)
        )
        (feed_forward): PositionwiseFeedForward(
          (w_1): Linear(in_features=256, out_features=2048, bias=True)
          (w_2): Linear(in_features=2048, out_features=256, bias=True)
          (layer_norm): LayerNorm((256,), eps=1e-06, elementwise_affine=True)
          (dropout_1): Dropout(p=0.3, inplace=False)
          (relu): ReLU()
          (dropout_2): Dropout(p=0.3, inplace=False)
        )
        (layer_norm): LayerNorm((256,), eps=1e-06, elementwise_affine=True)
        (dropout): Dropout(p=0.3, inplace=False)
      )
      (2): SALayerXL(
        (self_attn): MultiHeadedRelAttention(
          (linear_keys): Linear(in_features=256, out_features=256, bias=True)
          (linear_values): Linear(in_features=256, out_features=256, bias=True)
          (linear_query): Linear(in_features=256, out_features=256, bias=True)
          (softmax): Softmax(dim=-1)
          (dropout): Dropout(p=0.3, inplace=False)
          (final_linear): Linear(in_features=256, out_features=256, bias=True)
          (relative_pe): Embedding(12, 256, padding_idx=11)
        )
        (feed_forward): PositionwiseFeedForward(
          (w_1): Linear(in_features=256, out_features=2048, bias=True)
          (w_2): Linear(in_features=2048, out_features=256, bias=True)
          (layer_norm): LayerNorm((256,), eps=1e-06, elementwise_affine=True)
          (dropout_1): Dropout(p=0.3, inplace=False)
          (relu): ReLU()
          (dropout_2): Dropout(p=0.3, inplace=False)
        )
        (layer_norm): LayerNorm((256,), eps=1e-06, elementwise_affine=True)
        (dropout): Dropout(p=0.3, inplace=False)
      )
      (3): SALayerXL(
        (self_attn): MultiHeadedRelAttention(
          (linear_keys): Linear(in_features=256, out_features=256, bias=True)
          (linear_values): Linear(in_features=256, out_features=256, bias=True)
          (linear_query): Linear(in_features=256, out_features=256, bias=True)
          (softmax): Softmax(dim=-1)
          (dropout): Dropout(p=0.3, inplace=False)
          (final_linear): Linear(in_features=256, out_features=256, bias=True)
          (relative_pe): Embedding(12, 256, padding_idx=11)
        )
        (feed_forward): PositionwiseFeedForward(
          (w_1): Linear(in_features=256, out_features=2048, bias=True)
          (w_2): Linear(in_features=2048, out_features=256, bias=True)
          (layer_norm): LayerNorm((256,), eps=1e-06, elementwise_affine=True)
          (dropout_1): Dropout(p=0.3, inplace=False)
          (relu): ReLU()
          (dropout_2): Dropout(p=0.3, inplace=False)
        )
        (layer_norm): LayerNorm((256,), eps=1e-06, elementwise_affine=True)
        (dropout): Dropout(p=0.3, inplace=False)
      )
      (4): SALayerXL(
        (self_attn): MultiHeadedRelAttention(
          (linear_keys): Linear(in_features=256, out_features=256, bias=True)
          (linear_values): Linear(in_features=256, out_features=256, bias=True)
          (linear_query): Linear(in_features=256, out_features=256, bias=True)
          (softmax): Softmax(dim=-1)
          (dropout): Dropout(p=0.3, inplace=False)
          (final_linear): Linear(in_features=256, out_features=256, bias=True)
          (relative_pe): Embedding(12, 256, padding_idx=11)
        )
        (feed_forward): PositionwiseFeedForward(
          (w_1): Linear(in_features=256, out_features=2048, bias=True)
          (w_2): Linear(in_features=2048, out_features=256, bias=True)
          (layer_norm): LayerNorm((256,), eps=1e-06, elementwise_affine=True)
          (dropout_1): Dropout(p=0.3, inplace=False)
          (relu): ReLU()
          (dropout_2): Dropout(p=0.3, inplace=False)
        )
        (layer_norm): LayerNorm((256,), eps=1e-06, elementwise_affine=True)
        (dropout): Dropout(p=0.3, inplace=False)
      )
      (5): SALayerXL(
        (self_attn): MultiHeadedRelAttention(
          (linear_keys): Linear(in_features=256, out_features=256, bias=True)
          (linear_values): Linear(in_features=256, out_features=256, bias=True)
          (linear_query): Linear(in_features=256, out_features=256, bias=True)
          (softmax): Softmax(dim=-1)
          (dropout): Dropout(p=0.3, inplace=False)
          (final_linear): Linear(in_features=256, out_features=256, bias=True)
          (relative_pe): Embedding(12, 256, padding_idx=11)
        )
        (feed_forward): PositionwiseFeedForward(
          (w_1): Linear(in_features=256, out_features=2048, bias=True)
          (w_2): Linear(in_features=2048, out_features=256, bias=True)
          (layer_norm): LayerNorm((256,), eps=1e-06, elementwise_affine=True)
          (dropout_1): Dropout(p=0.3, inplace=False)
          (relu): ReLU()
          (dropout_2): Dropout(p=0.3, inplace=False)
        )
        (layer_norm): LayerNorm((256,), eps=1e-06, elementwise_affine=True)
        (dropout): Dropout(p=0.3, inplace=False)
      )
    )
    (layer_norm): LayerNorm((256,), eps=1e-06, elementwise_affine=True)
  )
  (set2set): Set2Set(256, 512)
  (g): Sequential(
    (0): Linear(in_features=512, out_features=256, bias=False)
    (1): BatchNorm1d(256, eps=1e-05, momentum=0.1, affine=True, track_running_stats=True)
    (2): ReLU(inplace=True)
    (3): Linear(in_features=256, out_features=128, bias=True)
  )
)
Number of parameters = 9561232
Loading vocab from ./my_preprocessed/USPTO_480k_g2s_series_rel_smiles_smiles/vocab_smiles.txt
Loading preprocessed features from ./my_preprocessed/USPTO_480k_g2s_series_rel_smiles_smiles/train_0.npz
Loaded and initialized G2SDataset, size: 409035
Loading vocab from ./my_preprocessed/USPTO_480k_g2s_series_rel_smiles_smiles/vocab_smiles.txt
…
